…
= 1, \n        kernel_initializer = \"uniform\", \n        activation         = \"sigmoid\") %&gt;% \n    # Compile ANN\n    compile(\n        optimizer = 'adam',\n        loss      = 'binary_crossentropy',\n        metrics   = c('accuracy')\n    )\nmodel_keras\n\n#&gt; Model: \"sequential\"\n#&gt; ________________________________________________________________________________\n#&gt;  Layer (type)                       Output Shape                    Param #     \n#&gt; ================================================================================\n#&gt;  dense_2 (Dense)                    (None, 16)                      816         \n#&gt;  dropout_1 (Dropout)                (None, 16)                      0           \n#&gt;  dense_1 (Dense)                    (None, 16)                      272         \n#&gt;  dropout (Dropout)                  (None, 16)                      0           \n#&gt;  dense (Dense)                      (None, 1)                       17          \n#&gt; ================================================================================\n#&gt; Total params: 1,105\n#&gt; Trainable params: 1,105\n#&gt; Non-trainable params: 0\n#&gt; ________________________________________________________________________________\n\n\n\n# Fit the keras model to the training data\nfit_keras &lt;-  model_keras %&gt;% fit(\n    x               = as.matrix
…
